SimCLR Model/classify_model.pth (torch, 5698 bytes, 2 tensors)

fc.weight f4 [2, 512]
00000000: 60eb c3bc a1b7 bf3d b632 c93b a2d7 903d
00000010: 5916 d53c 40d2 0a3d 85d1 63bd e7b1 ad3d
00000020: 3aed 8ebd 0f0f 39bd 5be3 33bd cbc6 eebc
00000030: f917 373d 7055 aa3c 1a26 f63b 5320 453c
00000040: 9184 be3c 736e 0e3c e279 743d 7629 b3bb
00000050: e678 e73d 7ff1 60bd 4cff 993c 3234 893d
00000060: 4524 26bd c67e 23bc c82c 3bbd ff30 8a3b
00000070: 16c2 68bb fe50 e63d 7306 123b 3e72 a23d
00000080: c29f a03d fe8c 2bbd 5142 a73d ee7a 28bd
00000090: b399 273d 5151 86bb ffb8 b0bc 64b1 0d3d
000000a0: 893f 71bd c743 ea3c 2b95 eb3c 4721 8e3c
000000b0: e157 5cbd d7eb abbd 34d7 3bbd 2c6f 41bc
000000c0: 1094 d93b fae5 533c 0273 873d 13f7 09bd
000000d0: 490c 5a3d 60f8 fabc 4c01 0b3c 48b4 803b
000000e0: 4987 a63d b3be 8cbb 2c37 743a cd24 01bd
000000f0: c99b 37bc 25be ec3b c8b4 9e3b 8bb3 75bd
00000100: 80b7 eabc a7db 533c 90ce 78b9 ac9d 273b
00000110: 494f 153e 2c96 f2ba 0b3e 813d 103a 9bbc
00000120: 8fed a9bb 3df6 aa3d b233 423c f9d3 72bd
00000130: 03dc 3bbd dae8 773b b650 84bd 40d5 bebb
00000140: 02c3 babc 22fb 40bd 0d39 afbc 96a4 233d
00000150: d01a f7bb a152 d03b 43db 80b9 bc0c 18bd
00000160: b990 eabb 8e3c 1dbd 9283 8c3c 90e6 debc
00000170: b4c6 2cbc 6cea b63b 65b1 fb3c 52b3 c83a
00000180: 3073 57bd 97de 73bc 38dd a73d a857 963d
00000190: 8987 d03c 67c5 3cbc b0ff 2cbc d38a a5ba
000001a0: 475f 153c 715d 9d3d d6c4 fe3b 8eed debc
000001b0: 7564 21bd f377 4cbc 1276 7f3b fad6 81bc
000001c0: 5e5c 673d 0f73 933d 6d40 09ba 2c9d 06bd
000001d0: e9bb 03bd 9b95 05bd 12cf b6bb 17cf 203d
000001e0: d074 283d 89f2 cdbc 5f47 b53c 561f b93c
000001f0: 8bb8 a4bc c538 5ebc dcaa 11bd 4f46 d8b9
00000200: d227 8e3d 0c90 2bbc c9aa 78bd 4572 bf3c
00000210: 0a79 bdbd e46a 17bc a2ab 9abc 11b8 0dbc
00000220: 04af 013d f02d a2bb f403 a5bd d73d d53c
00000230: b786 0f3d 8f39 3cbd d558 84bc a8ec 2bbd
00000240: 4a4b ad3c 8b6a 063d 513c b6bc 5314 3fbc
00000250: 6c74 49bd 84e7 47bd 1d33 d3bc 4682 e63c
00000260: 9f4c b5bc 48cc b8bc 5d1b 76bd 8449 833c
00000270: 5b85 29bd da7f bfba 4ce7 99bd bb97 ac3c
00000280: 75fb ac3c 3e44 233d fe79 a03d c190 aa3c
00000290: 1fcc 2ebd 9f6a 0c3b b9f8 64bd b604 80bb
000002a0: 2fd9 023c 62ed acbc 0b97 ffb9 f38d 9e3d
000002b0: ebb2 de3c 9a53 10bd 4bb4 10bd cc0e 31ba
000002c0: bb82 0cbd 290d e8bc 9611 a4bb 1bc2 d23c
000002d0: e4a9 a7bc 1655 20bd 69b7 0ebc 3cea 24bd
000002e0: 6c29 a53c 574f 85bc 89ea 85bd 471a 6d3c
000002f0: 8f66 7b3d f217 053d 8879 53bd f8ad 2abd
00000300: 9fb4 c53d f0fd 39bd 8d53 2abd eb6c cb3c
00000310: f4d9 90bc 9352 67bd 0c80 43bd 780b 21bd
00000320: 01ff 89bc 86b5 b0bc 47dc 45bc c108 49bc
00000330: 0a16 9dbb 793e 01bd 407a 11bd 29a3 fb3b
00000340: 8769 46bd 9afa ac3c d3b5 463c fd33 683d
00000350: 7ac7 f03c f103 a73d 742a 0abd 316c 5ebc
00000360: 3943 3b3d b0f3 d53b f213 853b fa67 4d3d
00000370: 75ea 0f3c 5406 b13d 864f 073d 83e9 d7bc
00000380: 00b7 00bb ee77 92bd d56f 77ba 27bc 053d
00000390: 3f4d 8d3c 9938 a8bc cf5d d03c 2676 f1bc
000003a0: 138f c63d c7f7 bf3d 7260 10bc ea8f 98bc
000003b0: e95b d8bb f54b 3abc 87ed fdbc 8b43 72bd
000003c0: 7daf 783d bf09 e13c 705e ab3d b581 70bc
000003d0: 768c be3d d553 a6bd 6084 a53d f6db df3c
000003e0: 14b7 7bbc f17f 543d b911 60bc 48f6 583c
000003f0: 47f0 7cbc aad2 a93c cc9d fb3a d3f3 123c
-0.023915946 0.09361196 0.0061400784 0.07072379 0.026011633 0.033891916 -0.055619735 0.08481198
-0.06978841 -0.045180377 -0.043917995 -0.029147526 0.044700596 0.020792693 0.0075118663 0.0120316325
0.023256572 0.008693325 0.05968655 -0.005467589 0.113023564 -0.05491781 0.018798493 0.066994086
-0.040561933 -0.009978956 -0.045697004 0.0042172666 -0.0035516075 0.11245917 0.0022281676 0.07931946
0.078429714 -0.041882508 0.08166946 -0.04113286 0.040918063 -0.004099049 -0.021572588 0.034593
-0.058898482 0.028596772 0.028757652 0.017349852 -0.053794745 -0.08394592 -0.04585953 -0.011806291
0.006639965 0.012933249 0.06613733 -0.033682894 0.053234372 -0.030636013 0.008484196 0.003927741
0.08131272 -0.004295194 0.00093160826 -0.031529237 -0.011206576 0.0072248154 0.004843328 -0.05998568
-0.028651953 0.012930787 -0.00023728074 0.0025576157 0.14581026 -0.001850789 0.06310662 -0.018948585
-0.00518579 0.083477475 0.011853145 -0.059284184 -0.045864116 0.0037828 -0.06460707 -0.005823761
-0.022798065 -0.0471145 -0.021389509 0.039951883 -0.007541038 0.0063575064 -0.00024577425 -0.03712152
-0.0071583656 -0.038387828 0.017152581 -0.02720955 -0.010545421 0.0055821445 0.030724237 0.0015312231
-0.052600086 -0.0148846125 0.08196491 0.07340938 0.025455253 -0.011521674 -0.0105590075 -0.0012629874
0.009116954 0.07683838 0.0077749295 -0.027212884 -0.039402444 -0.01247977 0.0038980287 -0.01584958
0.056484573 0.0719968 -0.00052357354 -0.032864735 -0.032161627 -0.032613378 -0.005578884 0.039259996
0.041127026 -0.025140064 0.022128759 0.02259795 -0.020107528 -0.01356334 -0.035563335 -0.00041251114
0.06941189 -0.010471355 -0.06070975 0.023369918 -0.09251602 -0.009241793 -0.018880669 -0.008649842
0.03166105 -0.004949324 -0.080573946 0.026030464 0.035040583 -0.04595333 -0.01615564 -0.04197374
0.021154065 0.03281645 -0.022245558 -0.0116625605 -0.049183294 -0.048804775 -0.025781209 0.028138291
-0.022131262 -0.022558346 -0.06008469 0.016026266 -0.041386943 -0.0014610246 -0.075148195 0.021068444
0.021115998 0.039860003 0.07835768 0.020820977 -0.042675134 0.0021425856 -0.055901263 -0.0039068116
0.007986351 -0.021109287 -0.00048749926 0.077419184 0.027184924 -0.03523598 -0.03532819 -0.0006754219
-0.03430436 -0.028326588 -0.005006979 0.025727322 -0.020466752 -0.039143644 -0.008710721 -0.040262446
0.020161353 -0.016273184 -0.06538875 0.014471597 0.061377104 0.03249354 -0.051629573 -0.041669816
0.09653591 -0.04540819 -0.041583586 0.02483221 -0.017682053 -0.056475233 -0.047729537 -0.039317578
-0.016845228 -0.021570932 -0.012076444 -0.0122701535 -0.004793887 -0.03155372 -0.035516977 0.0076793623
-0.048440482 0.02111559 0.012128311 0.056690205 0.029391993 0.08155049 -0.033731893 -0.0135755995
0.045718405 0.006529294 0.0040612156 0.050147988 0.008783926 0.08643785 0.033034824 -0.026356464
-0.0019640326 -0.07151781 -0.00094389665 0.03265014 0.017248748 -0.0205348 0.025435356 -0.029475283
0.09695258 0.09373432 -0.008812057 -0.018623311 -0.0066027534 -0.011370649 -0.03099705 -0.059146445
0.060714234 0.027470468 0.08367622 -0.014679362 0.093041345 -0.081214584 0.08081889 0.027326565
-0.015363473 0.051879827 -0.0136761 0.013242312 -0.015438146 0.020730335 0.0019196807 0.008969265

fc.bias f4 [2]
00000000: 94fe 033d cfde 4a3d
0.032225206 0.049528893
